…
Getting inputs for  3 0 2
Getting inputs for  3 1 0
Getting inputs for  3 1 1
Getting inputs for  3 1 2
Getting inputs for  4 0 0
Getting inputs for  4 0 1
Getting inputs for  4 0 2
Getting inputs for  4 1 0
Getting inputs for  4 1 1
Getting inputs for  4 1 2
Training started
____________________________________________________________________________________________________
Layer (type)                     Output Shape          Param #     Connected to                     
====================================================================================================
trellis_input (InputLayer)       (None, 3, 64, 64)     0                                            
____________________________________________________________________________________________________
convolution2d_1 (Convolution2D)  (None, 2, 64, 64)     56          trellis_input[0][0]              
____________________________________________________________________________________________________
maxpooling2d_1 (MaxPooling2D)    (None, 3, 32, 32)     0           trellis_input[0][0]              
____________________________________________________________________________________________________
convolution2d_3 (Convolution2D)  (None, 1, 32, 32)     28          maxpooling2d_1[0][0]             
____________________________________________________________________________________________________
layer-0-0-1 (Activation)         (None, 2, 64, 64)     0           convolution2d_1[0][0]            
____________________________________________________________________________________________________
layer-0-1-0 (Activation)         (None, 1, 32, 32)     0           convolution2d_3[0][0]            
____________________________________________________________________________________________________
maxpooling2d_4 (MaxPooling2D)    (None, 3, 32, 32)     0           trellis_input[0][0]              
____________________________________________________________________________________________________
maxpooling2d_5 (MaxPooling2D)    (None, 2, 32, 32)     0           layer-0-0-1[0][0]                
____________________________________________________________________________________________________
convolution2d_2 (Convolution2D)  (None, 3, 64, 64)     57          layer-0-0-1[0][0]                
____________________________________________________________________________________________________
merge_1 (Merge)                  (None, 6, 32, 32)     0           maxpooling2d_4[0][0]             
                                                                   maxpooling2d_5[0][0]             
                                                                   layer-0-1-0[0][0]                
____________________________________________________________________________________________________
convolution2d_4 (Convolution2D)  (None, 2, 32, 32)     110         merge_1[0][0]                    
____________________________________________________________________________________________________
layer-0-0-2 (Activation)         (None, 3, 64, 64)     0           convolution2d_2[0][0]            
____________________________________________________________________________________________________
layer-0-1-1 (Activation)         (None, 2, 32, 32)     0           convolution2d_4[0][0]            
____________________________________________________________________________________________________
maxpooling2d_8 (MaxPooling2D)    (None, 2, 32, 32)     0           layer-0-0-1[0][0]                
____________________________________________________________________________________________________
maxpooling2d_9 (MaxPooling2D)    (None, 3, 32, 32)     0           layer-0-0-2[0][0]                
____________________________________________________________________________________________________
merge_2 (Merge)                  (None, 7, 32, 32)     0           maxpooling2d_8[0][0]             
                                                                   maxpooling2d_9[0][0]             
                                                                   layer-0-1-1[0][0]                
____________________________________________________________________________________________________
convolution2d_5 (Convolution2D)  (None, 3, 32, 32)     192         merge_2[0][0]                    
____________________________________________________________________________________________________
layer-0-1-2 (Activation)         (None, 3, 32, 32)     0           convolution2d_5[0][0]            
____________________________________________________________________________________________________
maxpooling2d_12 (MaxPooling2D)   (None, 3, 32, 32)     0           trellis_input[0][0]              
____________________________________________________________________________________________________
maxpooling2d_13 (MaxPooling2D)   (None, 2, 32, 32)     0           layer-0-0-1[0][0]                
____________________________________________________________________________________________________
maxpooling2d_17 (MaxPooling2D)   (None, 3, 32, 32)     0           trellis_input[0][0]              
____________________________________________________________________________________________________
maxpooling2d_18 (MaxPooling2D)   (None, 2, 32, 32)     0           layer-0-0-1[0][0]                
____________________________________________________________________________________________________
maxpooling2d_19 (MaxPooling2D)   (None, 3, 32, 32)     0           layer-0-0-2[0][0]                
____________________________________________________________________________________________________
maxpooling2d_22 (MaxPooling2D)   (None, 2, 32, 32)     0           layer-0-0-1[0][0]                
____________________________________________________________________________________________________
maxpooling2d_23 (MaxPooling2D)   (None, 3, 32, 32)     0           layer-0-0-2[0][0]                
____________________________________________________________________________________________________
merge_6 (Merge)                  (None, 8, 32, 32)     0           maxpooling2d_12[0][0]            
                                                                   maxpooling2d_13[0][0]            
                                                                   layer-0-1-0[0][0]                
                                                                   layer-0-1-1[0][0]                
____________________________________________________________________________________________________
merge_7 (Merge)                  (None, 14, 32, 32)    0           maxpooling2d_17[0][0]            
                                                                   maxpooling2d_18[0][0]            
                                                                   maxpooling2d_19[0][0]            
                                                                   layer-0-1-0[0][0]                
                                                                   layer-0-1-1[0][0]                
                                                                   layer-0-1-2[0][0]                
____________________________________________________________________________________________________
merge_8 (Merge)                  (None, 10, 32, 32)    0           maxpooling2d_22[0][0]            
                                                                   maxpooling2d_23[0][0]            
                                                                   layer-0-1-1[0][0]                
                                                                   layer-0-1-2[0][0]                
____________________________________________________________________________________________________
upsampling2d_10 (UpSampling2D)   (None, 3, 64, 64)     0           layer-0-1-2[0][0]                
____________________________________________________________________________________________________
upsampling2d_13 (UpSampling2D)   (None, 2, 64, 64)     0           layer-0-1-1[0][0]                
____________________________________________________________________________________________________
upsampling2d_14 (UpSampling2D)   (None, 3, 64, 64)     0           layer-0-1-2[0][0]                
____________________________________________________________________________________________________
upsampling2d_3 (UpSampling2D)    (None, 1, 64, 64)     0           layer-0-1-0[0][0]                
____________________________________________________________________________________________________
upsampling2d_4 (UpSampling2D)    (None, 2, 64, 64)     0           layer-0-1-1[0][0]                
____________________________________________________________________________________________________
upsampling2d_8 (UpSampling2D)    (None, 1, 64, 64)     0           layer-0-1-0[0][0]                
____________________________________________________________________________________________________
upsampling2d_9 (UpSampling2D)    (None, 2, 64, 64)     0           layer-0-1-1[0][0]                
____________________________________________________________________________________________________
convolution2d_10 (Convolution2D) (None, 2, 32, 32)     254         merge_7[0][0]                    
____________________________________________________________________________________________________
convolution2d_11 (Convolution2D) (None, 3, 32, 32)     273         merge_8[0][0]                    
____________________________________________________________________________________________________
convolution2d_9 (Convolution2D)  (None, 1, 32, 32)     73          merge_6[0][0]                    
____________________________________________________________________________________________________
merge_3 (Merge)                  (None, 8, 64, 64)     0           trellis_input[0][0]              
                                                                   layer-0-0-1[0][0]                
                                                                   upsampling2d_3[0][0]             
                                                                   upsampling2d_4[0][0]             
____________________________________________________________________________________________________
merge_4 (Merge)                  (None, 14, 64, 64)    0           trellis_input[0][0]              
                                                                   layer-0-0-1[0][0]                
                                                                   layer-0-0-2[0][0]                
                                                                   upsampling2d_8[0][0]             
                                                                   upsampling2d_9[0][0]             
                                                                   upsampling2d_10[0][0]            
____________________________________________________________________________________________________
merge_5 (Merge)                  (None, 10, 64, 64)    0           layer-0-0-1[0][0]                
                                                                   layer-0-0-2[0][0]                
                                                                   upsampling2d_13[0][0]            
                                                                   upsampling2d_14[0][0]            
____________________________________________________________________________________________________
convolution2d_6 (Convolution2D)  (None, 1, 64, 64)     73          merge_3[0][0]                    
____________________________________________________________________________________________________
convolution2d_7 (Convolution2D)  (None, 2, 64, 64)     254         merge_4[0][0]                    
____________________________________________________________________________________________________
convolution2d_8 (Convolution2D)  (None, 3, 64, 64)     273         merge_5[0][0]                    
____________________________________________________________________________________________________
layer-1-1-0 (Activation)         (None, 1, 32, 32)     0           convolution2d_9[0][0]            
____________________________________________________________________________________________________
layer-1-1-1 (Activation)         (None, 2, 32, 32)     0           convolution2d_10[0][0]           
____________________________________________________________________________________________________
layer-1-1-2 (Activation)         (None, 3, 32, 32)     0           convolution2d_11[0][0]           
____________________________________________________________________________________________________
layer-1-0-0 (Activation)         (None, 1, 64, 64)     0           convolution2d_6[0][0]            
____________________________________________________________________________________________________
layer-1-0-1 (Activation)         (None, 2, 64, 64)     0           convolution2d_7[0][0]            
____________________________________________________________________________________________________
layer-1-0-2 (Activation)         (None, 3, 64, 64)     0           convolution2d_8[0][0]            
____________________________________________________________________________________________________
upsampling2d_17 (UpSampling2D)   (None, 1, 64, 64)     0           layer-1-1-0[0][0]                
____________________________________________________________________________________________________
upsampling2d_18 (UpSampling2D)   (None, 2, 64, 64)     0           layer-1-1-1[0][0]                
____________________________________________________________________________________________________
upsampling2d_22 (UpSampling2D)   (None, 1, 64, 64)     0           layer-1-1-0[0][0]                
____________________________________________________________________________________________________
upsampling2d_23 (UpSampling2D)   (None, 2, 64, 64)     0           layer-1-1-1[0][0]                
____________________________________________________________________________________________________
upsampling2d_24 (UpSampling2D)   (None, 3, 64, 64)     0           layer-1-1-2[0][0]                
____________________________________________________________________________________________________
upsampling2d_27 (UpSampling2D)   (None, 2, 64, 64)     0           layer-1-1-1[0][0]                
____________________________________________________________________________________________________
upsampling2d_28 (UpSampling2D)   (None, 3, 64, 64)     0           layer-1-1-2[0][0]                
____________________________________________________________________________________________________
maxpooling2d_26 (MaxPooling2D)   (None, 1, 32, 32)     0           layer-1-0-0[0][0]                
____________________________________________________________________________________________________
maxpooling2d_27 (MaxPooling2D)   (None, 2, 32, 32)     0           layer-1-0-1[0][0]                
____________________________________________________________________________________________________
maxpooling2d_31 (MaxPooling2D)   (None, 1, 32, 32)     0           layer-1-0-0[0][0]                
____________________________________________________________________________________________________
maxpooling2d_32 (MaxPooling2D)   (None, 2, 32, 32)     0           layer-1-0-1[0][0]                
____________________________________________________________________________________________________
maxpooling2d_33 (MaxPooling2D)   (None, 3, 32, 32)     0           layer-1-0-2[0][0]                
____________________________________________________________________________________________________
maxpooling2d_36 (MaxPooling2D)   (None, 2, 32, 32)     0           layer-1-0-1[0][0]                
____________________________________________________________________________________________________
maxpooling2d_37 (MaxPooling2D)   (None, 3, 32, 32)     0           layer-1-0-2[0][0]                
____________________________________________________________________________________________________
merge_10 (Merge)                 (None, 12, 64, 64)    0           layer-1-0-0[0][0]                
                                                                   layer-1-0-1[0][0]                
                                                                   layer-1-0-2[0][0]                
                                                                   upsampling2d_22[0][0]            
                                                                   upsampling2d_23[0][0]            
                                                                   upsampling2d_24[0][0]            
____________________________________________________________________________________________________
merge_11 (Merge)                 (None, 10, 64, 64)    0           layer-1-0-1[0][0]                
                                                                   layer-1-0-2[0][0]                
                                                                   upsampling2d_27[0][0]            
                                                                   upsampling2d_28[0][0]            
____________________________________________________________________________________________________
merge_9 (Merge)                  (None, 6, 64, 64)     0           layer-1-0-0[0][0]                
                                                                   layer-1-0-1[0][0]                
                                                                   upsampling2d_17[0][0]            
                                                                   upsampling2d_18[0][0]            
____________________________________________________________________________________________________
convolution2d_12 (Convolution2D) (None, 1, 64, 64)     55          merge_9[0][0]                    
____________________________________________________________________________________________________
convolution2d_13 (Convolution2D) (None, 2, 64, 64)     218         merge_10[0][0]                   
____________________________________________________________________________________________________
convolution2d_14 (Convolution2D) (None, 3, 64, 64)     273         merge_11[0][0]                   
____________________________________________________________________________________________________
merge_12 (Merge)                 (None, 6, 32, 32)     0           maxpooling2d_26[0][0]            
                                                                   maxpooling2d_27[0][0]            
                                                                   layer-1-1-0[0][0]                
                                                                   layer-1-1-1[0][0]                
____________________________________________________________________________________________________
merge_13 (Merge)                 (None, 12, 32, 32)    0           maxpooling2d_31[0][0]            
                                                                   maxpooling2d_32[0][0]            
                                                                   maxpooling2d_33[0][0]            
                                                                   layer-1-1-0[0][0]                
                                                                   layer-1-1-1[0][0]                
                                                                   layer-1-1-2[0][0]                
____________________________________________________________________________________________________
merge_14 (Merge)                 (None, 10, 32, 32)    0           maxpooling2d_36[0][0]            
                                                                   maxpooling2d_37[0][0]            
                                                                   layer-1-1-1[0][0]                
                                                                   layer-1-1-2[0][0]                
____________________________________________________________________________________________________
convolution2d_15 (Convolution2D) (None, 1, 32, 32)     55          merge_12[0][0]                   
____________________________________________________________________________________________________
convolution2d_16 (Convolution2D) (None, 2, 32, 32)     218         merge_13[0][0]                   
____________________________________________________________________________________________________
convolution2d_17 (Convolution2D) (None, 3, 32, 32)     273         merge_14[0][0]                   
____________________________________________________________________________________________________
layer-2-0-0 (Activation)         (None, 1, 64, 64)     0           convolution2d_12[0][0]           
____________________________________________________________________________________________________
layer-2-0-1 (Activation)         (None, 2, 64, 64)     0           convolution2d_13[0][0]           
____________________________________________________________________________________________________
layer-2-0-2 (Activation)         (None, 3, 64, 64)     0           convolution2d_14[0][0]           
____________________________________________________________________________________________________
layer-2-1-0 (Activation)         (None, 1, 32, 32)     0           convolution2d_15[0][0]           
____________________________________________________________________________________________________
layer-2-1-1 (Activation)         (None, 2, 32, 32)     0           convolution2d_16[0][0]           
____________________________________________________________________________________________________
layer-2-1-2 (Activation)         (None, 3, 32, 32)     0           convolution2d_17[0][0]           
____________________________________________________________________________________________________
maxpooling2d_40 (MaxPooling2D)   (None, 1, 32, 32)     0           layer-2-0-0[0][0]                
____________________________________________________________________________________________________
maxpooling2d_41 (MaxPooling2D)   (None, 2, 32, 32)     0           layer-2-0-1[0][0]                
____________________________________________________________________________________________________
maxpooling2d_45 (MaxPooling2D)   (None, 1, 32, 32)     0           layer-2-0-0[0][0]                
____________________________________________________________________________________________________
maxpooling2d_46 (MaxPooling2D)   (None, 2, 32, 32)     0           layer-2-0-1[0][0]                
____________________________________________________________________________________________________
maxpooling2d_47 (MaxPooling2D)   (None, 3, 32, 32)     0           layer-2-0-2[0][0]                
____________________________________________________________________________________________________
merge_18 (Merge)                 (None, 6, 32, 32)     0           maxpooling2d_40[0][0]            
                                                                   maxpooling2d_41[0][0]            
                                                                   layer-2-1-0[0][0]                
                                                                   layer-2-1-1[0][0]                
____________________________________________________________________________________________________
merge_19 (Merge)                 (None, 12, 32, 32)    0           maxpooling2d_45[0][0]            
                                                                   maxpooling2d_46[0][0]            
                                                                   maxpooling2d_47[0][0]            
                                                                   layer-2-1-0[0][0]                
                                                                   layer-2-1-1[0][0]                
                                                                   layer-2-1-2[0][0]                
____________________________________________________________________________________________________
upsampling2d_31 (UpSampling2D)   (None, 1, 64, 64)     0           layer-2-1-0[0][0]                
____________________________________________________________________________________________________
upsampling2d_32 (UpSampling2D)   (None, 2, 64, 64)     0           layer-2-1-1[0][0]                
____________________________________________________________________________________________________
upsampling2d_36 (UpSampling2D)   (None, 1, 64, 64)     0           layer-2-1-0[0][0]                
____________________________________________________________________________________________________
upsampling2d_37 (UpSampling2D)   (None, 2, 64, 64)     0           layer-2-1-1[0][0]                
____________________________________________________________________________________________________
upsampling2d_38 (UpSampling2D)   (None, 3, 64, 64)     0           layer-2-1-2[0][0]                
____________________________________________________________________________________________________
convolution2d_21 (Convolution2D) (None, 1, 32, 32)     55          merge_18[0][0]                   
____________________________________________________________________________________________________
convolution2d_22 (Convolution2D) (None, 2, 32, 32)     218         merge_19[0][0]                   
____________________________________________________________________________________________________
merge_15 (Merge)                 (None, 6, 64, 64)     0           layer-2-0-0[0][0]                
                                                                   layer-2-0-1[0][0]                
                                                                   upsampling2d_31[0][0]            
                                                                   upsampling2d_32[0][0]            
____________________________________________________________________________________________________
merge_16 (Merge)                 (None, 12, 64, 64)    0           layer-2-0-0[0][0]                
                                                                   layer-2-0-1[0][0]                
                                                                   layer-2-0-2[0][0]                
                                                                   upsampling2d_36[0][0]            
                                                                   upsampling2d_37[0][0]            
                                                                   upsampling2d_38[0][0]            
____________________________________________________________________________________________________
convolution2d_18 (Convolution2D) (None, 1, 64, 64)     55          merge_15[0][0]                   
____________________________________________________________________________________________________
convolution2d_19 (Convolution2D) (None, 2, 64, 64)     218         merge_16[0][0]                   
____________________________________________________________________________________________________
layer-3-1-0 (Activation)         (None, 1, 32, 32)     0           convolution2d_21[0][0]           
____________________________________________________________________________________________________
layer-3-1-1 (Activation)         (None, 2, 32, 32)     0           convolution2d_22[0][0]           
____________________________________________________________________________________________________
maxpooling2d_50 (MaxPooling2D)   (None, 2, 32, 32)     0           layer-2-0-1[0][0]                
____________________________________________________________________________________________________
maxpooling2d_51 (MaxPooling2D)   (None, 3, 32, 32)     0           layer-2-0-2[0][0]                
____________________________________________________________________________________________________
layer-3-0-0 (Activation)         (None, 1, 64, 64)     0           convolution2d_18[0][0]           
____________________________________________________________________________________________________
layer-3-0-1 (Activation)         (None, 2, 64, 64)     0           convolution2d_19[0][0]           
____________________________________________________________________________________________________
merge_20 (Merge)                 (None, 10, 32, 32)    0           maxpooling2d_50[0][0]            
                                                                   maxpooling2d_51[0][0]            
                                                                   layer-2-1-1[0][0]                
                                                                   layer-2-1-2[0][0]                
____________________________________________________________________________________________________
upsampling2d_41 (UpSampling2D)   (None, 2, 64, 64)     0           layer-2-1-1[0][0]                
____________________________________________________________________________________________________
upsampling2d_42 (UpSampling2D)   (None, 3, 64, 64)     0           layer-2-1-2[0][0]                
____________________________________________________________________________________________________
upsampling2d_45 (UpSampling2D)   (None, 1, 64, 64)     0           layer-3-1-0[0][0]                
____________________________________________________________________________________________________
upsampling2d_46 (UpSampling2D)   (None, 2, 64, 64)     0           layer-3-1-1[0][0]                
____________________________________________________________________________________________________
convolution2d_23 (Convolution2D) (None, 3, 32, 32)     273         merge_20[0][0]                   
____________________________________________________________________________________________________
merge_17 (Merge)                 (None, 10, 64, 64)    0           layer-2-0-1[0][0]                
                                                                   layer-2-0-2[0][0]                
                                                                   upsampling2d_41[0][0]            
                                                                   upsampling2d_42[0][0]            
____________________________________________________________________________________________________
merge_21 (Merge)                 (None, 6, 64, 64)     0           layer-3-0-0[0][0]                
                                                                   layer-3-0-1[0][0]                
                                                                   upsampling2d_45[0][0]            
                                                                   upsampling2d_46[0][0]            
____________________________________________________________________________________________________
convolution2d_20 (Convolution2D) (None, 3, 64, 64)     273         merge_17[0][0]                   
____________________________________________________________________________________________________
convolution2d_24 (Convolution2D) (None, 1, 64, 64)     55          merge_21[0][0]                   
____________________________________________________________________________________________________
layer-3-1-2 (Activation)         (None, 3, 32, 32)     0           convolution2d_23[0][0]           
____________________________________________________________________________________________________
layer-3-0-2 (Activation)         (None, 3, 64, 64)     0           convolution2d_20[0][0]           
____________________________________________________________________________________________________
layer-4-0-0 (Activation)         (None, 1, 64, 64)     0           convolution2d_24[0][0]           
____________________________________________________________________________________________________
upsampling2d_50 (UpSampling2D)   (None, 1, 64, 64)     0           layer-3-1-0[0][0]                
____________________________________________________________________________________________________
upsampling2d_51 (UpSampling2D)   (None, 2, 64, 64)     0           layer-3-1-1[0][0]                
____________________________________________________________________________________________________
upsampling2d_52 (UpSampling2D)   (None, 3, 64, 64)     0           layer-3-1-2[0][0]                
____________________________________________________________________________________________________
maxpooling2d_55 (MaxPooling2D)   (None, 1, 32, 32)     0           layer-3-0-0[0][0]                
____________________________________________________________________________________________________
maxpooling2d_56 (MaxPooling2D)   (None, 2, 32, 32)     0           layer-3-0-1[0][0]                
____________________________________________________________________________________________________
maxpooling2d_57 (MaxPooling2D)   (None, 1, 32, 32)     0           layer-4-0-0[0][0]                
____________________________________________________________________________________________________
merge_22 (Merge)                 (None, 13, 64, 64)    0           layer-3-0-0[0][0]                
                                                                   layer-3-0-1[0][0]                
                                                                   layer-3-0-2[0][0]                
                                                                   upsampling2d_50[0][0]            
                                                                   upsampling2d_51[0][0]            
                                                                   upsampling2d_52[0][0]            
                                                                   layer-4-0-0[0][0]                
____________________________________________________________________________________________________
convolution2d_25 (Convolution2D) (None, 2, 64, 64)     236         merge_22[0][0]                   
____________________________________________________________________________________________________
merge_24 (Merge)                 (None, 7, 32, 32)     0           maxpooling2d_55[0][0]            
                                                                   maxpooling2d_56[0][0]            
                                                                   layer-3-1-0[0][0]                
                                                                   layer-3-1-1[0][0]                
                                                                   maxpooling2d_57[0][0]            
____________________________________________________________________________________________________
convolution2d_27 (Convolution2D) (None, 1, 32, 32)     64          merge_24[0][0]                   
____________________________________________________________________________________________________
layer-4-0-1 (Activation)         (None, 2, 64, 64)     0           convolution2d_25[0][0]           
____________________________________________________________________________________________________
upsampling2d_55 (UpSampling2D)   (None, 2, 64, 64)     0           layer-3-1-1[0][0]                
____________________________________________________________________________________________________
upsampling2d_56 (UpSampling2D)   (None, 3, 64, 64)     0           layer-3-1-2[0][0]                
____________________________________________________________________________________________________
layer-4-1-0 (Activation)         (None, 1, 32, 32)     0           convolution2d_27[0][0]           
____________________________________________________________________________________________________
maxpooling2d_63 (MaxPooling2D)   (None, 1, 32, 32)     0           layer-3-0-0[0][0]                
____________________________________________________________________________________________________
maxpooling2d_64 (MaxPooling2D)   (None, 2, 32, 32)     0           layer-3-0-1[0][0]                
____________________________________________________________________________________________________
maxpooling2d_65 (MaxPooling2D)   (None, 3, 32, 32)     0           layer-3-0-2[0][0]                
____________________________________________________________________________________________________
maxpooling2d_66 (MaxPooling2D)   (None, 1, 32, 32)     0           layer-4-0-0[0][0]                
____________________________________________________________________________________________________
maxpooling2d_67 (MaxPooling2D)   (None, 2, 32, 32)     0           layer-4-0-1[0][0]                
____________________________________________________________________________________________________
merge_23 (Merge)                 (None, 12, 64, 64)    0           layer-3-0-1[0][0]                
                                                                   layer-3-0-2[0][0]                
                                                                   upsampling2d_55[0][0]            
                                                                   upsampling2d_56[0][0]            
                                                                   layer-4-0-1[0][0]                
____________________________________________________________________________________________________
convolution2d_26 (Convolution2D) (None, 3, 64, 64)     327         merge_23[0][0]                   
____________________________________________________________________________________________________
merge_25 (Merge)                 (None, 16, 32, 32)    0           maxpooling2d_63[0][0]            
                                                                   maxpooling2d_64[0][0]            
                                                                   maxpooling2d_65[0][0]            
                                                                   layer-3-1-0[0][0]                
                                                                   layer-3-1-1[0][0]                
                                                                   layer-3-1-2[0][0]                
                                                                   maxpooling2d_66[0][0]            
                                                                   maxpooling2d_67[0][0]            
                                                                   layer-4-1-0[0][0]                
____________________________________________________________________________________________________
convolution2d_28 (Convolution2D) (None, 2, 32, 32)     290         merge_25[0][0]                   
____________________________________________________________________________________________________
layer-4-0-2 (Activation)         (None, 3, 64, 64)     0           convolution2d_26[0][0]           
____________________________________________________________________________________________________
layer-4-1-1 (Activation)         (None, 2, 32, 32)     0           convolution2d_28[0][0]           
____________________________________________________________________________________________________
maxpooling2d_72 (MaxPooling2D)   (None, 2, 32, 32)     0           layer-3-0-1[0][0]                
____________________________________________________________________________________________________
maxpooling2d_73 (MaxPooling2D)   (None, 3, 32, 32)     0           layer-3-0-2[0][0]                
____________________________________________________________________________________________________
maxpooling2d_74 (MaxPooling2D)   (None, 2, 32, 32)     0           layer-4-0-1[0][0]                
____________________________________________________________________________________________________
maxpooling2d_75 (MaxPooling2D)   (None, 3, 32, 32)     0           layer-4-0-2[0][0]                
____________________________________________________________________________________________________
merge_26 (Merge)                 (None, 17, 32, 32)    0           maxpooling2d_72[0][0]            
                                                                   maxpooling2d_73[0][0]            
                                                                   layer-3-1-1[0][0]                
                                                                   layer-3-1-2[0][0]                
                                                                   maxpooling2d_74[0][0]            
                                                                   maxpooling2d_75[0][0]            
                                                                   layer-4-1-1[0][0]                
____________________________________________________________________________________________________
convolution2d_29 (Convolution2D) (None, 3, 32, 32)     462         merge_26[0][0]                   
____________________________________________________________________________________________________
layer-4-1-2 (Activation)         (None, 3, 32, 32)     0           convolution2d_29[0][0]           
____________________________________________________________________________________________________
flatten_1 (Flatten)              (None, 3072)          0           layer-4-1-2[0][0]                
____________________________________________________________________________________________________
dense_1 (Dense)                  (None, 18)            55314       flatten_1[0][0]                  
____________________________________________________________________________________________________
activation_1 (Activation)        (None, 18)            0           dense_1[0][0]                    
____________________________________________________________________________________________________
dense_2 (Dense)                  (None, 9)             171         activation_1[0][0]               
====================================================================================================
Total params: 60746
____________________________________________________________________________________________________
Fitting
Epoch 1/10
  32/5000 [..............................] - ETA: 223s - loss: 6.5629
…
